Model architecture:
WMMDClassifier(
  (backbone): UpstreamExpert(
    (model): MAE_AST(
      (feature_extractor): Identity()
      (post_extract_proj): Linear(in_features=256, out_features=768, bias=True)
      (layer_norm): LayerNorm((128,), eps=1e-05, elementwise_affine=True)
      (batch_norm): BatchNorm2d(1, eps=1e-05, momentum=0.1, affine=False, track_running_stats=True)
      (unfold): Unfold(kernel_size=(16, 16), dilation=1, padding=0, stride=(16, 16))
      (dropout_input): Dropout(p=0.1, inplace=False)
      (enc_sine_pos_embed): SinusoidalPositionalEncoding()
      (encoder): TransformerEncoder(
        (layers): ModuleList(
          (0-3): 4 x TransformerSentenceEncoderLayer(
            (self_attn): MultiheadAttention(
              (dropout_module): FairseqDropout()
              (k_proj): Linear(in_features=768, out_features=768, bias=True)
              (v_proj): Linear(in_features=768, out_features=768, bias=True)
              (q_proj): Linear(in_features=768, out_features=768, bias=True)
              (out_proj): Linear(in_features=768, out_features=768, bias=True)
            )
            (dropout1): Dropout(p=0.1, inplace=False)
            (dropout2): Dropout(p=0.0, inplace=False)
            (dropout3): Dropout(p=0.1, inplace=False)
            (self_attn_layer_norm): LayerNorm((768,), eps=1e-05, elementwise_affine=True)
            (fc1): Linear(in_features=768, out_features=3072, bias=True)
            (fc2): Linear(in_features=3072, out_features=768, bias=True)
            (final_layer_norm): LayerNorm((768,), eps=1e-05, elementwise_affine=True)
          )
        )
        (layer_norm): LayerNorm((768,), eps=1e-05, elementwise_affine=True)
      )
      (dec_sine_pos_embed): SinusoidalPositionalEncoding()
      (decoder): TransformerEncoder(
        (layers): ModuleList(
          (0): TransformerSentenceEncoderLayer(
            (self_attn): MultiheadAttention(
              (dropout_module): FairseqDropout()
              (k_proj): Linear(in_features=768, out_features=768, bias=True)
              (v_proj): Linear(in_features=768, out_features=768, bias=True)
              (q_proj): Linear(in_features=768, out_features=768, bias=True)
              (out_proj): Linear(in_features=768, out_features=768, bias=True)
            )
            (dropout1): Dropout(p=0.1, inplace=False)
            (dropout2): Dropout(p=0.0, inplace=False)
            (dropout3): Dropout(p=0.1, inplace=False)
            (self_attn_layer_norm): LayerNorm((768,), eps=1e-05, elementwise_affine=True)
            (fc1): Linear(in_features=768, out_features=3072, bias=True)
            (fc2): Linear(in_features=3072, out_features=768, bias=True)
            (final_layer_norm): LayerNorm((768,), eps=1e-05, elementwise_affine=True)
          )
        )
        (layer_norm): LayerNorm((768,), eps=1e-05, elementwise_affine=True)
      )
      (final_proj_reconstruction): Linear(in_features=768, out_features=256, bias=True)
      (final_proj_classification): Linear(in_features=768, out_features=256, bias=True)
    )
  )
  (classifier): Sequential(
    (0): LayerNorm((6144,), eps=1e-05, elementwise_affine=True)
    (1): Dropout(p=0.5, inplace=False)
    (2): Linear(in_features=6144, out_features=31, bias=True)
  )
  (criterion): CrossEntropyLoss()
  (train_precision): MulticlassPrecision()
  (train_recall): MulticlassRecall()
  (train_f1): MulticlassF1Score()
  (val_precision): MulticlassPrecision()
  (val_recall): MulticlassRecall()
  (val_f1): MulticlassF1Score()
  (test_precision): MulticlassPrecision()
  (test_recall): MulticlassRecall()
  (test_f1): MulticlassF1Score()
…
