…
_layers': 1, 'decoder_layerdrop': 0.0, 'dropout': 0.1, 'attention_dropout': 0.1, 'activation_dropout': 0.0, 'encoder_layerdrop': 0.05, 'dropout_input': 0.1, 'random_mask_prob': 0.75, 'mask_length': 10, 'mask_selection': static, 'mask_other': 0.0, 'no_mask_overlap': False, 'mask_min_space': 0, 'conv_pos': 128, 'conv_pos_groups': 16, 'checkpoint_activations': False, 'max_token_length': 48000, 'enc_sine_pos': True, 'enc_conv_pos': False, 'dec_sine_pos': True, 'dec_conv_pos': False}
[2025-07-10 22:03:00,301][fairseq_cli.train][INFO] - MAE_AST(
  (feature_extractor): Identity()
  (post_extract_proj): Linear(in_features=256, out_features=768, bias=True)
  (layer_norm): LayerNorm((128,), eps=1e-05, elementwise_affine=True)
  (batch_norm): BatchNorm2d(1, eps=1e-05, momentum=0.1, affine=False, track_running_stats=True)
  (unfold): Unfold(kernel_size=(16, 16), dilation=1, padding=0, stride=(16, 16))
  (dropout_input): Dropout(p=0.1, inplace=False)
  (enc_sine_pos_embed): SinusoidalPositionalEncoding()
  (encoder): TransformerEncoder(
    (layers): ModuleList(
      (0-5): 6 x TransformerSentenceEncoderLayer(
        (self_attn): MultiheadAttention(
          (dropout_module): FairseqDropout()
          (k_proj): Linear(in_features=768, out_features=768, bias=True)
          (v_proj): Linear(in_features=768, out_features=768, bias=True)
          (q_proj): Linear(in_features=768, out_features=768, bias=True)
          (out_proj): Linear(in_features=768, out_features=768, bias=True)
        )
        (dropout1): Dropout(p=0.1, inplace=False)
        (dropout2): Dropout(p=0.0, inplace=False)
        (dropout3): Dropout(p=0.1, inplace=False)
        (self_attn_layer_norm): LayerNorm((768,), eps=1e-05, elementwise_affine=True)
        (fc1): Linear(in_features=768, out_features=3072, bias=True)
        (fc2): Linear(in_features=3072, out_features=768, bias=True)
        (final_layer_norm): LayerNorm((768,), eps=1e-05, elementwise_affine=True)
      )
    )
    (layer_norm): LayerNorm((768,), eps=1e-05, elementwise_affine=True)
  )
  (dec_sine_pos_embed): SinusoidalPositionalEncoding()
  (decoder): TransformerEncoder(
    (layers): ModuleList(
      (0): TransformerSentenceEncoderLayer(
        (self_attn): MultiheadAttention(
          (dropout_module): FairseqDropout()
          (k_proj): Linear(in_features=768, out_features=768, bias=True)
          (v_proj): Linear(in_features=768, out_features=768, bias=True)
          (q_proj): Linear(in_features=768, out_features=768, bias=True)
          (out_proj): Linear(in_features=768, out_features=768, bias=True)
        )
        (dropout1): Dropout(p=0.1, inplace=False)
        (dropout2): Dropout(p=0.0, inplace=False)
        (dropout3): Dropout(p=0.1, inplace=False)
        (self_attn_layer_norm): LayerNorm((768,), eps=1e-05, elementwise_affine=True)
        (fc1): Linear(in_features=768, out_features=3072, bias=True)
        (fc2): Linear(in_features=3072, out_features=768, bias=True)
        (final_layer_norm): LayerNorm((768,), eps=1e-05, elementwise_affine=True)
      )
    )
    (layer_norm): LayerNorm((768,), eps=1e-05, elementwise_affine=True)
  )
  (final_proj_reconstruction): Linear(in_features=768, out_features=256, bias=True)
  (final_proj_classification): Linear(in_features=768, out_features=256, bias=True)
)
[2025-07-10 22:03:00,302][fairseq_cli.train][INFO] - task: MAE_AST_Pretraining_Task
[2025-07-10 22:03:00,302][fairseq_cli.train][INFO] - model: MAE_AST
[2025-07-10 22:03:00,302][fairseq_cli.train][INFO] - criterion: MAE_AST_Criterion
[2025-07-10 22:03:00,302][fairseq_cli.train][INFO] - num. shared model params: 50,211,072 (num. trained: 50,211,072)
[2025-07-10 22:03:00,303][fairseq_cli.train][INFO] - num. expert model params: 0 (num. trained: 0)
…
